lightning_logs/version_0/checkpoints/epoch=99-step=400.ckpt (torch, 39896 bytes, 18 tensors)

mlp.0.weight f4 [64, 4]
000000 a4 0f 8b 3e c0 cc e3 be c5 33 28 3f 81 9b 05 3f
       0.2716037 -0.4449215 0.65703994 0.52190405
000010 38 54 9a bd 10 f2 3f bd be 96 fc 3e 90 15 c4 be
       -0.07535595 -0.04686171 0.49333757 -0.382977
000020 58 dd da 3c ad 55 ad 3e 37 3d c8 3d f0 e6 82 3e
       0.026716873 0.33854428 0.09777301 0.25566816
000030 9d 26 90 bd 2b 9d cb 3e 39 5f 91 3e 17 9f 23 bf
       -0.07038615 0.39768347 0.28392962 -0.63914627
000040 b5 ed 49 bd c1 5e 5c 3d 50 45 2e be c9 96 cc 3e
       -0.04929896 0.053801302 -0.17018628 0.3995879
000050 f8 6a 9f be 29 2f 06 bf b1 75 e4 3e 36 1b 62 3e
       -0.31136298 -0.5241571 0.4462104 0.22080693
000060 77 ef ea 3e 25 9a ca be 19 81 4a 3e c8 d5 40 be
       0.45885822 -0.39570728 0.1977581 -0.18831551
000070 5c 78 74 3e 47 2d a6 be fc ff f3 3d 4e 38 42 be
       0.23874038 -0.3245642 0.119140595 -0.18966791
000080 d0 2b 39 bf 2a 4c aa 3d 7e e7 d3 be b1 fb c1 bd
       -0.7233248 0.083153084 -0.41387552 -0.094718345
000090 47 99 16 be a1 ba 2f 3e e1 e8 d6 be 56 ad c1 be
       -0.14706908 0.17161037 -0.41974548 -0.37827557
0000a0 b5 e1 a7 be b4 05 e8 be 23 20 ff 3d c2 1c 80 be
       -0.32789388 -0.4531685 0.124573015 -0.2502194
0000b0 6d c4 88 3d dd 5f e6 be 39 78 c0 3e 4f 79 e6 bd
       0.0667809 -0.44995013 0.37591723 -0.112536065
0000c0 fc d2 9f 3d fd b7 cc 3e 76 9e 02 bf da 90 40 be
       0.07803914 0.39984122 -0.5102304 -0.18805256
0000d0 22 4f d1 be 71 8d e1 be ef 02 89 3e 7f 31 0f bf
       -0.40880686 -0.44053224 0.2676005 -0.559349
0000e0 2d c7 08 be 35 19 57 bc b4 91 f7 be b6 60 25 bf
       -0.1335723 -0.013128568 -0.4835335 -0.64600694
0000f0 69 1b 51 bd 9b 81 bd bd 5d 3c 44 3f a4 0e 1e bd
       -0.05105153 -0.09253236 0.7665461 -0.03858818
000100 3f a8 b0 3c 82 fa d9 3e aa cf 6e be 55 5f 0f bf
       0.021564601 0.42573935 -0.23321405 -0.5600484
000110 46 9d f0 3c 26 60 45 3f 4b e3 54 be a0 b8 f3 bd
       0.029371869 0.77099836 -0.2078983 -0.11900449
000120 d5 38 e2 be ad 2c 4a 3e b8 98 88 3d 71 39 f2 3e
       -0.44183984 0.19743605 0.06669754 0.4730945
000130 82 dc 4c 3e 28 1c 5e bd 7c ee 8e 3e fe d4 d6 3e
       0.20005992 -0.05422607 0.27916324 0.41959375
000140 a1 ad 80 3e f1 6d 27 bf 36 cd 7c 3e 4c f3 6e 3e
       0.25132468 -0.6540213 0.24687657 0.23334998
000150 6a 2d 90 be 79 a4 4a 3e 16 61 5f be fd 5e 34 bf
       -0.28159648 0.19789304 -0.21814379 -0.7045744
000160 3e 74 2f 3e 03 df f9 bd 28 22 0e 3f bb c4 d0 3c
       0.17134187 -0.12200739 0.5552087 0.025484433
000170 83 7b 63 be cc 0e 7e bd 04 32 a6 3e 2a 53 23 3f
       -0.22215085 -0.06202583 0.32460034 0.63798773
000180 cb 31 6d 3d 9d 8c b7 3e d8 64 c9 be e8 e2 19 bf
       0.057908814 0.35849467 -0.3933475 -0.60111856
000190 02 d3 ce be 4b 57 2f be 1c fb a1 3e 8d 0a 21 3f
       -0.4039536 -0.17123143 0.31636894 0.62906724
0001a0 e7 65 1d 3f a1 92 8c be 48 cc 2e bf 2f cb c3 be
       0.61483616 -0.2745562 -0.6828046 -0.38240954
0001b0 63 28 36 bf 64 5d a8 bd 1a 92 0a bf f5 ff d4 3e
       -0.71155375 -0.08220938 -0.54129183 0.4160153
0001c0 db a2 e8 be 24 61 77 3e 88 cd 95 be b8 9e 18 bf
       -0.4543675 0.2415815 -0.2925837 -0.59617186
0001d0 d9 83 51 bf d7 71 8d 3f 45 51 46 be 5d 00 22 bd
       -0.8184181 1.1050366 -0.1936694 -0.039551128
0001e0 1a 37 c9 be 01 41 40 be d2 9a 18 3f 53 05 b8 3e
       -0.39299852 -0.18774797 0.5961124 0.35941562
0001f0 9d 17 93 3d d0 11 9d bc e3 13 0e 3f 32 5c ba 3e
       0.07182238 -0.019173533 0.55499095 0.36398464
000200 09 3b 3f be 05 39 8d be 19 d0 23 3e 6b 29 03 bf
       -0.18674864 -0.27582565 0.15997352 -0.51235074
000210 00 e2 fe 3c d0 5c 52 bd 50 f2 d1 3d 98 6a e5 bd
       0.031113625 -0.051358044 0.102512956 -0.11201972
000220 ba de 97 3e bd 35 06 3f 27 8c d8 be e2 d9 f5 be
       0.29662114 0.5242575 -0.42294428 -0.48017794
000230 6a 1b 37 3d c3 1f 78 3e a7 71 f4 be 48 4f dd 3e
       0.04470388 0.24230866 -0.4774296 0.4322455
000240 6e 66 8f be 54 7a 81 3e b6 0c eb 3e 3b 8f 1b 3f
       -0.28007835 0.2528864 0.45908135 0.6076543
000250 b3 02 de 3d 5b 29 13 3d e2 5d be be 4e 90 9c be
       0.108403586 0.03592811 -0.37181002 -0.30578846
000260 82 37 ed bd 29 75 09 3e a6 59 89 3e 9c 8f c9 bd
       -0.11582853 0.134236 0.2682621 -0.098418444
000270 b8 b1 1e 3f 5e 8d 1d 3f 3b 09 06 bf 63 4a 94 be
       0.6198993 0.61543834 -0.52357835 -0.28963003
000280 d8 d6 0a bf 5a 66 96 be fa 31 71 3e 8a a4 a5 be
       -0.54234076 -0.29374963 0.23554221 -0.32352096
000290 93 ca 0c bd ff c6 82 3e 29 96 02 3f fb 7a 39 3e
       -0.034372877 0.25542447 0.51010376 0.1811332
0002a0 2c 92 0f 3f c5 b2 fa 3d 0f 90 e6 bd 89 66 3f 3e
       0.56082416 0.12241129 -0.11257946 0.18691458
0002b0 0d 3f 72 3e 0b 90 30 3d 8a 0b e4 3e d2 30 23 3e
       0.23656864 0.04310612 0.44540054 0.15936592
0002c0 6e f5 b5 3e 19 79 05 bf 41 c3 f7 3e d1 2b e7 3e
       0.3553881 -0.52137905 0.48391154 0.45150617
0002d0 45 99 10 bf 17 55 19 bf cc fd 0c 3f 44 38 c7 3e
       -0.5648387 -0.5989546 0.55074763 0.38910115
0002e0 22 ed 0f bf 78 4d 0e 3f 00 cb 23 bf df 2d fb be
       -0.5622121 0.5558696 -0.6398163 -0.49058434
0002f0 bd 37 48 3c a9 b8 e6 3e 51 f1 f5 3e ec a4 95 3d
       0.01222032 0.4506276 0.48035672 0.07306847
000300 1c b7 9b bd d1 77 88 be 6e b4 f1 3e d1 ba ba 3e
       -0.07603285 -0.26653913 0.4720797 0.36470655
000310 da 68 6b 3e 27 fb b3 bd e6 dc e9 3e 52 e7 75 3e
       0.22989216 -0.08788138 0.45676345 0.24014023
000320 68 08 0b 3e f9 ce 3c be 99 59 c2 3e 1e 2f 18 3f
       0.13577425 -0.18438329 0.37958983 0.59446895
000330 d8 1b 42 3c 44 8b e0 be f3 d5 b8 3d ac f8 c9 3e
       0.011847459 -0.4385625 0.090251826 0.39447534
000340 dd 4e 84 3e 54 1e b0 bc 93 dd 34 3f 46 42 92 be
       0.25841418 -0.021498837 0.70650595 -0.28566188
000350 57 7d 88 bc 73 e3 82 3d b5 fa 8d bc a6 e4 d1 be
       -0.01666133 0.06391039 -0.01733146 -0.40994757
000360 de 4f 9a 3e 5f c5 1c 3f b8 15 10 3f 63 28 1d 3d
       0.3013906 0.61238664 0.5628314 0.038368594
000370 4d 8b 68 bd 06 67 80 3c 4a 5c b3 bd d4 62 70 be
       -0.056773473 0.015674125 -0.08757837 -0.234752
000380 9d 43 b7 bd 3f 91 94 3c b5 c8 7d bd f9 f3 3c be
       -0.08948443 0.018135665 -0.061958987 -0.18452443
000390 2b 9e de 3d 1d aa 9c 3d 4d 2c f5 be 55 57 1a bf
       0.10870012 0.07649634 -0.4788536 -0.6028951
0003a0 be 79 2a bf 0e de 7d be ce 11 dd be 5f bd d2 be
       -0.66592014 -0.24791738 -0.43177646 -0.41160104
0003b0 a2 58 06 3f b8 d0 10 bf 7c 93 af 3d d1 68 8e be
       0.5247899 -0.5656848 0.08573052 -0.27814344
0003c0 ea bd 87 3e 07 e5 82 be cc a9 28 3d 97 59 c4 be
       0.2651208 -0.2556536 0.041177556 -0.38349602
0003d0 31 d3 25 3f 5a 88 a3 3e b4 ee 3a 3d 6d bd 39 3f
       0.6477538 0.31939965 0.0456378 0.72554666
0003e0 9d 33 9b 3e f4 9a b4 3a 29 fd db be 81 2c 8f be
       0.30312815 0.001377909 -0.42966583 -0.2796364
0003f0 e4 79 14 3e 91 49 d0 3c f2 aa f9 3d 27 3f 21 bf
       0.14499623 0.025425704 0.12190808 -0.6298699

mlp.0.bias f4 [64]
000000 96 c8 c6 3e ba ca bb be 34 04 08 3f a2 6c d8 bc
       0.3882491 -0.36678106 0.53131413 -0.026418988
000010 7f 14 d1 3d 84 41 c1 3e 84 5b ab bd 96 52 16 3f
       0.102089874 0.37745297 -0.083670646 0.58719766
000020 54 d1 86 bd 3b 71 12 3d 65 ff c2 bd fa 80 1a 3e
       -0.06582895 0.035752516 -0.09521369 0.15088263
000030 02 b0 28 be 11 87 39 3e 55 4e 05 3e ac 50 8a be
       -0.16473392 0.1811793 0.13018163 -0.27014673
000040 57 e5 8d be 80 ef 19 3f d9 6e ac 3e aa 7d c1 be
       -0.27714035 0.60131073 0.3367832 -0.37791187
000050 40 1c 37 bd 14 45 e2 3e b5 ba 9a bc e3 e0 41 be
       -0.044704676 0.44193327 -0.018887857 -0.18933444
000060 8d e5 9a 3e 7e 78 a4 3e 8f a5 2f bd cc 37 10 3d
       0.30253258 0.32123178 -0.0428825 0.035209462
000070 1b 75 84 3e 5b 3b c6 3e ea dc dd 3c 91 39 86 3e
       0.25870594 0.3871716 0.02708288 0.26215795
000080 36 be 42 3f ca a1 eb be 62 37 20 3f bf 19 2c 3f
       0.7607149 -0.46021873 0.6258451 0.67226785
000090 d3 2b cc be c0 35 2b 3f 01 2c e4 be 95 11 04 3f
       -0.39877185 0.6687889 -0.44564822 0.5158933
0000a0 ab 99 ef 3d 7e 7d 8a 3e 9b af 1e bf 0a 0b bf 3e
       0.11699232 0.27048868 -0.619867 0.3731311
0000b0 81 1e bd be 96 d4 a8 3e e6 42 a0 3e b7 86 26 bc
       -0.36937335 0.3297469 0.3130104 -0.010163954
0000c0 73 cd 89 be b8 e0 cf be 73 89 c0 be a2 f4 cc 3e
       -0.26914558 -0.40601134 -0.37604865 0.4003039
0000d0 e9 c4 43 be dd e5 65 bc 3f 27 62 3d 33 55 13 3f
       -0.19118084 -0.014031854 0.05521321 0.5755188
0000e0 d3 c7 fc 3e 1c 0b c8 bd 32 4f af be da a7 af 3c
       0.49371204 -0.09767744 -0.3424011 0.021442343
0000f0 52 99 4c 3e 9d 23 5c be 37 c3 32 3f 79 d0 30 3f
       0.19980362 -0.2149796 0.69829124 0.69068104

mlp.2.weight f4 [32, 64]
000000 b6 29 b4 bd 08 b6 ac 3d 85 31 66 3d b5 d8 ed bd
       -0.08797018 0.08433157 0.05619957 -0.11613599
000010 85 69 8c 3d 1c e1 25 3d d3 0a 8d bd a5 b3 8d 3d
       0.06856064 0.040497884 -0.0688683 0.0691903
000020 8b 03 13 be d1 f5 8a 3c 0c 54 b6 bd e7 dd aa 3d
       -0.1435682 0.016962918 -0.089027494 0.08343106
000030 fc 46 aa bb f2 6d 22 bd ba 0b 91 bd b9 01 85 bd
       -0.0051964503 -0.039655633 -0.07082315 -0.06494469
000040 e8 32 2a be 98 4e ab 3b cc 6c b1 bc dd 42 bb bc
       -0.16620982 0.005227875 -0.021658324 -0.022859031
000050 0c 15 04 be 55 c9 25 be d1 e2 b7 bd b2 1c 15 3d
       -0.12898654 -0.16190083 -0.08978809 0.03640432
000060 96 8c 19 bd 3f 58 46 3d 38 64 6c 3d a8 1d 27 be
       -0.03748759 0.048424 0.057712764 -0.16319907
000070 57 38 bc bd 94 98 99 bd 24 5d cf bd a1 00 b4 bd
       -0.091904335 -0.07499805 -0.10125187 -0.087891825
000080 e9 fd 30 bd 62 78 da bd 91 69 86 3d da 2c 89 3d
       -0.043210898 -0.106674924 0.06563104 0.06698008
000090 2d 6d df bd 39 04 0c be e6 c6 a1 3d 07 18 9f 3d
       -0.109094955 -0.13673486 0.07899265 0.07768255
0000a0 30 ce de 3c f1 2b aa bb 36 06 08 be 9a 09 e0 39
       0.027197927 -0.0051932265 -0.1328362 0.00042731763
0000b0 0d 2e 85 bc b4 0a a3 3c 65 84 83 bd 04 58 06 be
       -0.01625731 0.019902565 -0.06421737 -0.13119513
0000c0 69 77 59 bd 39 21 87 3c 00 71 39 be 5c 1e a1 bd
       -0.053092394 0.016495334 -0.18109512 -0.07867119
0000d0 72 10 10 be a3 f8 dd 3d 5c 34 50 3d b5 aa 8d 3d
       -0.14068773 0.10838439 0.050831184 0.069173254
0000e0 a2 13 74 3d 3d 7d 0f be 2a d1 d2 bd e0 19 0b bc
       0.059589036 -0.14012618 -0.10293801 -0.008490056
0000f0 9d b6 51 bd 56 8e ad bc 52 21 96 3c bc 26 7f 3d
       -0.051199544 -0.021186035 0.018326435 0.0622928
000100 6d 74 06 3e c8 2c 9c 3d 74 16 f1 3d cc 9a be 3d
       0.1313035 0.07625729 0.11771861 0.09306869
000110 61 f1 88 3d 7a 96 dc 3d b0 55 02 bc 04 75 24 bd
       0.066866644 0.107708886 -0.007955 -0.040150657
000120 4d 2f c7 3e 7f ca f6 bd 62 dc 6d 3c 7e c3 6e 3d
       0.38903275 -0.12050342 0.014517875 0.058291905
000130 9f b8 26 bd 05 7b c5 3a 0a ab 2b bf dc 05 d4 3e
       -0.040703412 0.001506657 -0.6705786 0.4141072
000140 ff 3c f1 3c 66 cd 4f bd 61 09 4f 3e 5c 4e 59 3e
       0.02944803 -0.050732993 0.20218422 0.21221298
000150 3a 69 72 3e 66 e4 a9 be 42 6a a2 3d c0 ba 34 3e
       0.23672953 -0.33182067 0.07930423 0.17649364
000160 6e 56 41 be 37 9a 93 3d 4b 07 6b be ee b1 c0 3e
       -0.18880627 0.072071485 -0.22952001 0.3763575
000170 0e b8 08 bf e8 25 6f bf fa 28 30 3e ab 28 6d bc
       -0.53405845 -0.93417215 0.17203131 -0.014475028
000180 68 38 fe 3d 74 d3 f6 bd b4 a9 4b bf 8d ff 22 be
       0.124131024 -0.1205205 -0.7955582 -0.15917797
000190 17 e6 d7 3e 6b b0 cd be af a3 06 3e 7a d5 da be
       0.42167732 -0.4017366 0.13148378 -0.42740995
0001a0 fb 68 80 3d 13 89 bf 3c 51 50 82 3e 4e 1b e7 3d
       0.062700234 0.023380792 0.25451902 0.11284505
0001b0 0f 2b ea 3d a4 ba cf 3d e4 e8 42 be c1 ff 9d 3e
       0.11433994 0.10143021 -0.19034153 0.30859187
0001c0 1e f1 8d 3e d5 44 c8 3e ea fe a6 3e 06 1a 1c 3d
       0.2772302 0.39115015 0.3261636 0.038110755
0001d0 ae 46 b3 3d 43 dd 91 3d 17 68 8e 3e 67 e0 65 be
       0.087537155 0.071222804 0.2781379 -0.22448884
0001e0 a0 f4 ad bd 00 40 32 3d 6c 15 65 3e 4f 86 29 be
       -0.08493924 0.043518066 0.22371453 -0.16555141
0001f0 60 38 24 be d0 e1 4e 3e 45 c9 b8 be c8 45 81 be
       -0.1603713 0.20203328 -0.36091056 -0.2524855
000200 49 90 02 3d 9c 74 06 bd af 46 77 3e 22 cc d3 3d
       0.031875882 -0.03282605 0.24148057 0.103416696
000210 b8 29 c3 3d 38 77 23 3d e5 44 f9 3d 1a 21 06 3e
       0.095294416 0.039908618 0.12171344 0.13098565
000220 03 92 39 3e fd d4 09 3d 1b 89 d0 3d 59 d6 8b bd
       0.18122105 0.033650387 0.10182401 -0.06827993
000230 06 d5 27 3e eb ee 24 3e 4e 36 bc 3c 30 f0 95 be
       0.16389856 0.16106765 0.022975113 -0.2928481
000240 13 3a 3d 3e 2a fe b2 3e b6 aa 02 3e 18 18 95 be
       0.18479185 0.34959537 0.12760434 -0.29119945
000250 38 29 ca 3c e1 b8 f8 3d 74 3e c5 3c be 26 fe bd
       0.024677858 0.12144638 0.024077632 -0.12409733
000260 cf 46 2a 3e 4c 8a 05 bd 22 68 4e 3e e0 e0 af bd
       0.16628574 -0.032602593 0.20156911 -0.085878134
000270 02 e9 68 3e 4f 92 87 3e 54 e8 79 be 7c 80 9c bc
       0.22745135 0.26478812 -0.24405032 -0.019104235
000280 25 b2 e4 3d e8 9f f2 bc b9 a8 d2 3e 3e 12 80 3e
       0.11166791 -0.029617265 0.4114435 0.25013918
000290 48 fe be be 48 24 82 3e a0 6a 2e 3c 99 99 87 3e
       -0.37303376 0.25418305 0.010645539 0.26484373
0002a0 e0 5d 5a 3e 0c 3f a6 3c 74 14 80 be 4c 2f 9d bc
       0.21324873 0.020293735 -0.25015604 -0.019187592
0002b0 24 16 cc bd 24 9a 7b bc 60 1b b6 3d b9 20 20 bd
       -0.099651605 -0.015356574 0.0889194 -0.039093707
0002c0 3a 94 a0 be 94 3d 82 be e5 36 92 be 5f 3e fa 3c
       -0.31363088 -0.25437605 -0.28557506 0.030547319
0002d0 85 ee 90 bd a1 46 2d 3e 1b d8 7c 3c 40 10 a6 3e
       -0.07076744 0.16921474 0.015432383 0.32434273
0002e0 68 0e 20 3e d7 d5 5e 3e df 64 20 3e 31 68 46 3e
       0.15630496 0.21761261 0.1566348 0.19375683
0002f0 c1 e3 aa 3e ad ce 48 be 71 df c4 3e 6a 00 83 3e
       0.33376887 -0.1961009 0.38451722 0.25586253
000300 ed d3 8b bc 80 74 f5 3c 45 7f 30 bc 17 4c 18 3f
       -0.017068828 0.029962778 -0.010772531 0.59491104
000310 a8 f7 04 3e 85 f3 eb 3d 76 90 ed 3d 27 70 f2 bc
       0.12985098 0.11521057 0.11599819 -0.029594494
000320 e1 cc da 3e af d6 3f 3e e2 68 2c 3d 28 c0 81 bd
       0.42734435 0.18734239 0.04209221 -0.06335479
000330 5c 3d 4c bd a7 ba b4 3c 4b f9 30 be 57 8f ae 3e
       -0.049863204 0.022061659 -0.17282598 0.34093735
000340 7c 04 40 3d 77 09 60 be 4b d1 4b bd f3 c9 3f 3e
       0.046879277 -0.2187861 -0.049760144 0.18729381
000350 1f bb 14 bc da 22 c8 bc 55 f3 ed 3c 06 69 66 3e
       -0.009077816 -0.024430681 0.029046694 0.22501001
000360 94 d4 0e be c4 1d 7b 3d 89 d3 80 be 0e 0d f4 3e
       -0.1394828 0.061307684 -0.2516139 0.4766621
000370 61 32 53 be 61 06 71 bf e7 0a c7 3d 37 5e 2a 3e
       -0.20624687 -0.9415036 0.09718876 0.16637503
000380 1f a9 06 bd 08 32 8a bd c8 56 89 bf 48 1c fe bd
       -0.03287613 -0.06747824 -1.0729609 -0.12407738
000390 d0 96 13 3f a9 9c e8 bd ce 74 c5 bd af 77 28 bf
       0.57651997 -0.113580056 -0.09641419 -0.6580762
0003a0 cc 32 bc 3d 8b d7 b8 3d f2 08 26 3f ae bd 88 bc
       0.09189376 0.090254866 0.648574 -0.016692009
0003b0 c5 fc bd 3d 40 fd 08 3e e0 a6 ac be fe f0 a3 3e
       0.092767276 0.13377857 -0.33721066 0.320198
0003c0 e2 7b 2d 3e 41 d3 42 3e 52 05 71 3d d8 af 08 3d
       0.16941789 0.190259 0.058842964 0.033370823
0003d0 f9 7c fd 3d 16 c2 1d 3e a0 18 a9 3e 78 dd 8b bd
       0.12377352 0.15406069 0.330266 -0.06829351
0003e0 9e 8f 75 3d 70 59 02 be 1a 0d af 3e a3 e3 a1 bd
       0.059951417 -0.1272943 0.34189683 -0.079047464
0003f0 36 3f a5 bd 35 5a 96 3e 1d c2 09 be c4 5a 0b be
       -0.08068697 0.29365698 -0.13452955 -0.13608843

mlp.2.bias f4 [32]
000000 69 d9 fa bc d9 44 6a bd 85 34 f1 3d 52 6d b6 bd
       -0.030621247 -0.057194564 0.117775954 -0.0890757
000010 c5 e6 20 3e 82 10 a4 3e 5b e2 9d 3e 3a d1 79 3e
       0.15713032 0.32043844 0.30836758 0.2439622
000020 98 39 0f 3d 32 b7 89 3d bc 29 4a 3d b4 b6 2e bd
       0.034967035 0.06724395 0.049356207 -0.042654708
000030 8c 8e 19 3e 73 38 c7 3b b1 2f 93 bd 03 e9 da bd
       0.14995784 0.0060797273 -0.07186831 -0.10688975
000040 b8 8a f3 3d b7 b4 a4 3e aa b4 7e 3e 3c 37 d2 bd
       0.11891693 0.32169124 0.24873605 -0.10264441
000050 89 6a 2a 3d 14 c9 5b 3e 04 00 09 be bb c6 50 3d
       0.041605506 0.21463424 -0.13378912 0.050970774
000060 86 e0 9c 3c e6 0e 64 3c 43 2d e2 bd 98 c5 72 bd
       0.01915003 0.013919568 -0.11043789 -0.05927047
000070 83 c6 26 3e fd aa 0b be ee 92 12 be 37 80 41 bd
       0.16286664 -0.13639446 -0.14313862 -0.047241416

mlp.4.weight f4 [3, 32]
000000 1e e9 60 3c e6 0c ab be 24 bc 54 3e f2 a3 22 bf
       0.0137274545 -0.33408278 0.20774895 -0.6353141
000010 64 85 82 3e 64 6a b3 be 15 97 68 3e 9f 65 08 be
       0.25492394 -0.35042107 0.22713883 -0.13320015
000020 b0 d6 a5 3e 2b 93 b4 be e0 d7 fa bb 9e e6 40 3e
       0.32390356 -0.3526853 -0.007655129 0.18837973
000030 8a 89 68 be 57 d2 06 bd 8d af e6 bd d7 08 13 be
       -0.22708717 -0.03291544 -0.112639524 -0.14358841
000040 3d 04 bf be 1f b2 ca be 92 4b 57 3e f6 ca 7e bd
       -0.3730792 -0.3958902 0.21024922 -0.062205277
000050 e8 9b fa be a4 21 cf be 41 70 58 3e d2 8a 7d 3e
       -0.48947072 -0.40455353 0.21136571 0.24759987
000060 ac 55 98 3e 61 f9 24 bd 62 ee 3e be a9 39 cd 3d
       0.29752862 -0.04027689 -0.18645623 0.100207634
000070 0d d3 b5 be aa f3 a4 bd 82 9a e2 bc 5a 20 27 be
       -0.3551258 -0.08054288 -0.027661566 -0.16320935
000080 65 0a c2 3d 3a 30 d5 be 46 da 79 3e 03 7b c6 be
       0.09474639 -0.41638356 0.24399671 -0.38765725
000090 b3 9a c9 3d 0e b7 9d 3e 7e 02 7c 3e 9f 93 ec 3d
       0.0984396 0.30803722 0.24610326 0.11551594
0000a0 92 cd 78 be 62 32 5c 3e 2d 42 28 be d5 19 25 be
       -0.24297169 0.21503595 -0.16431494 -0.16123135
0000b0 e4 e8 c3 3c a0 82 6a be a8 79 cc be 2d 66 4f be
       0.023914762 -0.22901392 -0.39936566 -0.2025382
0000c0 da ac 4a 3e 4d 1b 3a 3e 98 b8 82 3e 4c 68 29 be
       0.197925 0.18174477 0.2553146 -0.16543692
0000d0 ea 9c ca bd d3 67 1f 3e 49 dd c0 be 3d 86 f5 bc
       -0.0989321 0.1556695 -0.37668827 -0.029971236
0000e0 8e 04 b1 be fe a8 12 be f8 a9 00 3e 86 4b 10 3d
       -0.34573787 -0.14322278 0.12564838 0.035228275
0000f0 d6 25 99 3e 59 1b f1 3b 4e 74 96 bd 19 5e 1e be
       0.2991168 0.0073579964 -0.07346402 -0.15465583
000100 98 aa 66 3d 6b 32 92 3e d4 6a ee be 5f 54 e7 3d
       0.056315035 0.2855409 -0.46565878 0.112953894
000110 cc b2 cc be 9a 9d 1b 3d 3d cd ab be 9e a0 cf be
       -0.3998016 0.037992097 -0.33555022 -0.4055223
000120 2e b6 1b be 12 fe 4c be ac cd e9 bd ed 7f 4c 3e
       -0.15206215 -0.20018795 -0.11416182 0.19970675
000130 5b 4d 69 3e 01 b9 c8 3e ba c8 bc 3e 88 91 f7 bd
       0.22783415 0.39203647 0.36871892 -0.12088305
000140 51 df 68 3e 5a 69 93 be f2 76 d7 be 54 15 da 3d
       0.22741438 -0.28791314 -0.42082936 0.10648599
000150 f0 e3 f3 3c 43 c0 21 bd 4d 1d 0a 3e d7 20 bd be
       0.029771775 -0.039489996 0.1348774 -0.36939117
000160 df bd 0b be ff c5 cd bc af 57 3a 3c 36 11 56 3d
       -0.13646649 -0.025118826 0.011373444 0.052262507
000170 73 7d 22 3e ea c2 a5 3e 29 28 04 bc d0 97 b2 3e
       0.15868168 0.3237527 -0.008066216 0.3488145

mlp.4.bias f4 [3]
000000 5b e9 1e bd 18 3e 4c 3e d1 96 bc bc
       -0.038796764 0.19945562 -0.023021134

exp_avg f4 [64, 4]
000000 5f 43 17 39 ee 2e 92 b9 b6 45 b8 39 a4 90 11 3a
       0.0001442558 -0.00027882255 0.00035147154 0.0005552864
000010 00 00 00 00 00 00 00 00 00 00 00 00 00 00 00 00
       0.0 0.0 0.0 0.0
000020 5d 29 a2 b8 98 b5 85 3a 38 03 55 ba 0a a9 67 ba
       -7.7324665e-05 0.0010201214 -0.0008125785 -0.00088371395
000030 2b 75 1b b6 06 50 27 b8 4f e4 c9 37 9b c5 cc 37
       -2.3165e-06 -3.989043e-05 2.4067382e-05 2.4410712e-05
000040 66 6b 1f 36 4b aa 9b 39 6f 76 5d b9 49 d9 b6 b9
       2.375536e-06 0.00029690782 -0.00021120322 -0.00034875635
000050 48 35 39 39 bf bd 1f b9 35 ea 8a 39 e0 b3 80 39
       0.00017662824 -0.00015234108 0.0002649591 0.0002454808
000060 73 db 93 b4 3a bb a6 39 96 3f b6 b9 89 76 2a ba
       -2.7540554e-07 0.00031801482 -0.0003476112 -0.00065026485
000070 af cf 13 b9 e9 79 04 3a 1b e9 50 ba f6 47 b3 ba
       -0.0001409638 0.00050535664 -0.0007969306 -0.0013678062
000080 6a 50 8d 38 96 fc 8b b8 f8 35 03 b7 9e 77 e6 b7
       6.738382e-05 -6.675084e-05 -7.820774e-06 -2.7473838e-05
000090 26 32 e0 b6 1a 2b 2f b8 be 40 99 37 14 6b c4 37
       -6.6815583e-06 -4.1763393e-05 1.826917e-05 2.3414883e-05
0000a0 65 38 80 3a 84 cc b6 39 a9 6c 0e 38 2e 17 f7 b9
       0.0009782432 0.0003486612 3.3956636e-05 -0.0004712878
0000b0 91 ca 05 39 f5 b0 bb b8 73 06 26 39 3a de ea 38
       0.0001275933 -8.949816e-05 0.00015833396 0.000111993824
0000c0 3a 34 95 37 2c 08 a9 b7 af c4 e9 37 2d db d4 37
       1.7786504e-05 -2.0150175e-05 2.7867352e-05 2.5374431e-05
0000d0 78 35 75 3a a0 bc 97 39 5e 77 44 38 c5 4f da b9
       0.0009353976 0.000289415 4.684121e-05 -0.00041639633
0000e0 2e dc c1 37 e9 49 a3 37 d5 2d a1 37 6d 68 b5 37
       2.3109922e-05 1.9465531e-05 1.9214038e-05 2.1625508e-05
0000f0 35 72 2f 3a 2c 81 ad ba 86 d9 0a 3b 42 c1 68 3b
       0.00066927384 -0.0013237349 0.0021186783 0.0035515581
000100 de d5 6e 37 93 61 88 b7 5f ed bb 37 9f eb aa 37
       1.42357e-05 -1.62579e-05 2.2402672e-05 2.0375299e-05
000110 a6 b9 16 bb 92 05 91 b8 54 9d 5f ba f7 41 2a ba
       -0.0022998839 -6.915176e-05 -0.00085302186 -0.0006494815
000120 95 1a 5d 38 6c ca a0 b8 36 f7 e0 b5 cf 47 a2 b8
       5.2715262e-05 -7.6670985e-05 -1.6761248e-06 -7.738137e-05
000130 91 0b 6c 39 26 5f 8d ba 17 6e bd 3a 81 46 22 3b
       0.00022511023 -0.0010785803 0.0014452365 0.0024761262
000140 cf 0e 96 39 67 9c e3 b9 4f 93 31 3a 6c 0c 6c 3a
       0.00028621263 -0.00043413343 0.0006773965 0.00090045366
000150 7f 61 08 b8 ae 02 0c 38 ab 3d 05 38 f3 3d 6e 38
       -3.2515727e-05 3.3381097e-05 3.1767104e-05 5.6801317e-05
000160 36 81 3a 39 69 92 ae b9 75 da ea 39 4a c8 26 3a
       0.00017786477 -0.0003329695 0.0004479472 0.0006362243
000170 a3 ca c4 39 79 ba 92 ba 81 5f c9 3a 5b 09 27 3b
       0.0003753501 -0.0011194489 0.0015363545 0.0025487754
000180 ca ca f3 36 e2 2d 22 b8 db 70 0d 38 5a 80 20 38
       7.265572e-06 -3.866654e-05 3.3722124e-05 3.826651e-05
000190 a5 96 65 39 ff 37 8b b9 55 af de 39 4b 23 08 3a
       0.00021895261 -0.00026553866 0.00042473772 0.00051932473
0001a0 c4 fc 95 ba c5 66 1c bb 7e 74 35 3a e0 a2 d2 38
       -0.0011443128 -0.0023864966 0.0006921961 0.00010043918
0001b0 0b 24 b0 38 1c 91 85 36 e9 14 31 b8 91 e0 a1 b8
       8.3990475e-05 3.980602e-06 -4.2219563e-05 -7.718907e-05
0001c0 51 71 f8 37 c5 c5 89 37 a9 83 8b 37 17 cc cf 37
       2.961667e-05 1.6423766e-05 1.66314e-05 2.477136e-05
0001d0 5c 39 53 39 cb 28 17 ba ed bb 32 ba 1a 56 8b ba
       0.00020143896 -0.00057662715 -0.0006818164 -0.0010630519
0001e0 4f 15 f8 39 e2 6b 6f ba 6b 2b b9 3a 40 61 0c 3b
       0.00047318122 -0.0009133202 0.001412732 0.002142027
0001f0 7f f4 08 39 7b db 8e b9 b4 75 a6 39 9f 83 e6 39
       0.00013061053 -0.00027247876 0.00031749683 0.00043967084
000200 b1 29 fb b8 9f c2 9c 39 d6 ee 11 ba 14 49 77 ba
       -0.00011976378 0.00029899643 -0.00055669004 -0.0009433192
000210 00 00 00 00 00 00 00 00 00 00 00 00 00 00 00 00
       0.0 0.0 0.0 0.0
000220 b4 27 d5 bb 44 d8 4e 38 18 9e 75 bb 95 48 6d bb
       -0.006504977 4.931564e-05 -0.0037478264 -0.0036206592
000230 be 4b 47 b9 7b e8 1f 3a c7 f6 7c ba 51 d2 d3 ba
       -0.00019006335 0.0006100011 -0.000964981 -0.0016160702
000240 d2 ff 3c b9 a2 ed 38 3a 85 8c ad ba 4c 68 02 bb
       -0.00018024378 0.0007054453 -0.0013240731 -0.0019898592
000250 f4 4b c7 b9 32 88 79 3a 3c a5 c7 ba 73 8c 1f bb
       -0.00038012827 0.0009518891 -0.0015231739 -0.002434519
000260 75 35 ad 1c 3a 91 85 1c e6 b4 71 1c af 2b 4b 1c
       1.1461998e-21 8.838742e-22 7.9974017e-22 6.7223525e-22
000270 ea ef 94 bb 3e 9a d6 b8 c4 f7 00 bb 8a 77 d0 ba
       -0.0045452015 -0.00010233045 -0.001967893 -0.0015904766
000280 7a e1 87 3a 4a d3 2e 3a 7d 38 06 b9 a5 be 48 ba
       0.001036688 0.0006669058 -0.0001280028 -0.0007657803
000290 11 27 e8 38 82 41 44 b9 22 34 6c 39 ba 0b 97 39
       0.00011069899 -0.0001871642 0.00022526135 0.000288097
0002a0 c5 22 2b 3b f6 71 f9 b9 e8 81 e5 3a 52 79 ff 3a
       0.0026113254 -0.00047577888 0.0017510029 0.0019491112
0002b0 e9 26 8c 38 95 1f 01 b9 f5 8f d2 38 70 dc d5 38
       6.682968e-05 -0.00012314164 0.000100403944 0.00010197691
0002c0 df 0f a8 39 e8 88 4b ba 7e 72 85 3a 55 45 da 3a
       0.00032055282 -0.0007764236 0.0010181216 0.0016652743
0002d0 af 67 86 39 12 d1 c5 b9 f3 5f 19 3a d5 70 49 3a
       0.00025635722 -0.00037730538 0.00058507844 0.0007684355
0002e0 4c b6 4c b6 25 99 46 b8 f0 f8 cd 37 53 84 ea 37
       -3.050448e-06 -4.7349506e-05 2.4553825e-05 2.7956592e-05
0002f0 a9 56 53 ba a7 d8 42 bb 75 45 d9 3a 5f 51 23 3b
       -0.00080619246 -0.0029731186 0.0016576486 0.0024920327
000300 fd 94 de 39 87 81 af ba 71 ad e5 3a c7 a6 3f 3b
       0.00042454145 -0.0013390043 0.0017523003 0.0029243694
000310 1a d7 87 39 ae 19 b8 ba 3d 3f ea 3a 05 8a 4b 3b
       0.0002590947 -0.0014045739 0.001787163 0.0031057608
000320 56 ac 09 3a 31 5c 61 ba b7 0e be 3a 92 44 1c 3b
       0.00052518153 -0.00085968064 0.0014500235 0.0023844582
000330 82 36 0d 39 84 9c aa b8 18 df 0d 39 a9 ee 88 38
       0.00013467114 -8.135385e-05 0.00013529917 6.529439e-05
000340 5b b9 0f 39 0c 5c 44 ba 4d 4b 44 3a 6e d7 a8 3a
       0.00013706593 -0.00074905227 0.00074880273 0.0012881586
000350 69 5b 5a 37 06 05 1a b8 b8 4e 29 38 f9 7a 27 38
       1.3015096e-05 -3.672114e-05 4.0366052e-05 3.993043e-05
000360 6b 18 84 ba f8 d4 fa ba fb 2b 73 3a 9d 26 d1 3a
       -0.0010078078 -0.0019136956 0.0009276268 0.0015956942
000370 47 9a 93 b9 dc 9a 62 3a e8 1c ac ba ee e7 0f bb
       -0.0002815297 0.00086442917 -0.0013131173 -0.002195831
000380 2e 64 1d b9 fb 98 14 3a 01 e9 60 ba 2e a1 c3 ba
       -0.00015010007 0.0005668548 -0.0008579642 -0.0014925355
000390 96 f5 c0 36 cb 86 9c b8 66 55 47 38 96 68 74 38
       5.750636e-06 -7.463767e-05 4.752483e-05 5.8271537e-05
0003a0 6f bb 26 38 11 87 36 b8 16 2d 39 37 69 a5 91 36
       3.9752045e-05 -4.351797e-05 1.1037357e-05 4.340593e-06
0003b0 67 eb 47 b9 bd 5d 3f 3a 7d 4e 5b ba a1 4b be ba
       -0.00019065813 0.000730004 -0.00083658827 -0.0014518389
0003c0 00 13 98 b9 80 e6 8d 3a e9 50 7d ba 6d c6 e4 ba
       -0.00029005855 0.0010826141 -0.00096632406 -0.0017454155
0003d0 ca 80 85 ba df cf 69 ba 4d 62 52 ba 5f fe 04 3a
       -0.0010185477 -0.000891922 -0.0008025512 0.00050733046
0003e0 27 6b d8 b9 52 50 95 3a 22 2d e4 ba 18 30 3a bb
       -0.00041278565 0.0011391735 -0.001740847 -0.0028410014
0003f0 a1 50 9e b9 be f4 53 3a 18 c2 a7 ba 2a 51 08 bb
       -0.00030196182 0.00080854807 -0.0012798933 -0.002080033

exp_avg_sq f4 [64, 4]
000000 a2 fd e5 36 43 9f 7b 37 6b ae 49 37 6d 5b ec 36
       6.8542586e-06 1.4997847e-05 1.2021143e-05 7.0439914e-06
000010 00 00 00 00 00 00 00 00 00 00 00 00 00 00 00 00
       0.0 0.0 0.0 0.0
000020 06 77 e4 36 1b d2 af 37 a7 70 81 37 ba 71 f0 36
       6.8087857e-06 2.0959464e-05 1.5430456e-05 7.165797e-06
000030 2a 7d 06 35 fc 9a 10 35 86 ff 70 35 dd 5b 62 35
       5.010103e-07 5.386971e-07 8.97788e-07 8.432524e-07
000040 28 09 8e 35 06 a9 4a 36 ce 80 0a 36 6f 20 99 35
       1.0582489e-06 3.019873e-06 2.0638577e-06 1.1408828e-06
000050 bd 02 ca 35 c5 86 40 36 a9 26 e0 35 75 41 92 35
       1.505097e-06 2.8688676e-06 1.6700552e-06 1.0896898e-06
000060 45 ed 08 37 50 8d d2 37 44 41 8a 37 db 9b ec 36
       8.161475e-06 2.5099755e-05 1.6481274e-05 7.051492e-06
000070 94 1d 16 38 e8 e5 e3 38 d6 40 93 38 69 e4 0c 38
       3.5790334e-05 0.00010867027 7.021583e-05 3.3591325e-05
000080 22 17 5e 35 d7 6f 6d 35 f7 27 72 35 71 84 5c 35
       8.273511e-07 8.845213e-07 9.021018e-07 8.2149114e-07
000090 41 5f 8e 34 24 43 f4 34 6b 2a bc 34 5a c8 9d 34
       2.6518867e-07 4.5497393e-07 3.5048592e-07 2.9389304e-07
0000a0 ee 3e 8c 36 13 49 ef 37 51 d0 56 37 a3 d9 a0 36
       4.179651e-06 2.8525048e-05 1.2803896e-05 4.793708e-06
0000b0 c6 1f 41 35 89 06 87 35 b0 c7 0c 35 41 77 af 34
       7.194434e-07 1.0060186e-06 5.244465e-07 3.268306e-07
0000c0 21 48 c0 35 8a a6 81 35 2b 75 1d 36 91 04 13 36
       1.4326107e-06 9.659718e-07 2.3463024e-06 2.1907365e-06
0000d0 dd ac bb 36 e5 09 14 38 88 0a 8e 37 13 fd d7 36
       5.593158e-06 3.5295165e-05 1.6932623e-05 6.436961e-06
0000e0 42 7f ce 34 b5 35 ee 34 c8 ea b6 34 a5 23 8b 34
       3.8463082e-07 4.4370032e-07 3.4070968e-07 2.5916702e-07
0000f0 81 73 17 39 24 b6 f4 39 80 57 aa 39 6d d8 1d 39
       0.00014443511 0.00046675012 0.0003249012 0.00015053312
000100 3d ec 60 33 08 ce b2 33 9f f8 f9 33 68 d8 de 33
       5.236892e-08 8.326248e-08 1.164019e-07 1.0377045e-07
000110 4b b5 ee 37 9e 15 33 36 89 8d b1 37 16 b1 a7 37
       2.8456232e-05 2.6685661e-06 2.1165952e-05 1.9990413e-05
000120 92 20 51 35 6c 12 c7 35 cf a1 6f 35 ee d0 5f 35
       7.7905963e-07 1.4832017e-06 8.92699e-07 8.3378006e-07
000130 93 be dc 38 16 c6 a2 39 8d a1 69 39 ac a7 de 38
       0.00010525915 0.00031046633 0.00022280794 0.00010617016
000140 16 19 4d 37 e4 37 18 38 62 9b c7 37 fb 90 55 37
       1.2224793e-05 3.6291676e-05 2.3795004e-05 1.2729545e-05
000150 5e 8d e7 35 bf 36 29 36 a2 15 9c 35 5d 27 b0 35
       1.7251984e-06 2.5214829e-06 1.1629202e-06 1.3124478e-06
000160 89 29 68 36 65 67 3e 37 ad 6b f6 36 6e 51 6f 36
       3.459487e-06 1.1348956e-05 7.3439064e-06 3.5661174e-06
000170 8a 75 e1 38 c4 a7 ae 39 1b 64 73 39 9d 62 e8 38
       0.000107507294 0.0003331286 0.00023211578 0.0001108099
000180 35 a9 28 36 e9 f5 9f 35 64 6a 41 36 a2 c5 26 36
       2.5132442e-06 1.1917992e-06 2.8821169e-06 2.4850965e-06
000190 60 db b1 36 f8 88 82 37 d4 34 2d 37 24 43 b9 36
       5.3005497e-06 1.5560989e-05 1.0323904e-05 5.521246e-06
0001a0 88 d5 c7 36 2e 86 d4 38 30 ec 77 37 a0 f2 99 36
       5.9555205e-06 0.00010133941 1.4777339e-05 4.5880006e-06
0001b0 c1 ec 6b 34 db 35 02 35 08 d0 15 34 d7 36 2b 34
       2.1972211e-07 4.8507144e-07 1.3952388e-07 1.5945567e-07
0001c0 5d c9 60 35 d4 1a 44 35 4c e5 92 35 19 bb 82 35
       8.3739525e-07 7.305473e-07 1.0944582e-06 9.740207e-07
0001d0 10 32 39 35 65 75 ae 35 05 de 8e 36 50 b9 ee 36
       6.899072e-07 1.2998177e-06 4.2577763e-06 7.114526e-06
0001e0 0e 83 7e 38 34 b0 49 39 44 66 05 39 13 14 80 38
       6.0680373e-05 0.00019234495 0.00012721965 6.107255e-05
0001f0 af 6d 32 36 c8 77 ef 36 40 b3 a6 36 5b ce 3f 36
       2.6587911e-06 7.1366994e-06 4.968053e-06 2.8581333e-06
000200 33 7c ac 37 eb 6f 80 38 ae 0e 26 38 f0 bd a4 37
       2.0561833e-05 6.124362e-05 3.9591156e-05 1.963877e-05
000210 00 00 00 00 00 00 00 00 00 00 00 00 00 00 00 00
       0.0 0.0 0.0 0.0
000220 c5 b5 06 39 79 e5 80 37 6f 9b db 38 25 ac af 38
       0.0001284695 1.5365646e-05 0.000104716855 8.376715e-05
000230 f9 02 ef 37 d7 5f 94 38 67 4c 81 38 67 77 f6 37
       2.8492404e-05 7.0750415e-05 6.1654304e-05 2.9381086e-05
000240 b8 bf c1 37 db 7c 5e 37 67 5c e3 37 00 22 ba 37
       2.3096669e-05 1.3261301e-05 2.7103537e-05 2.218876e-05
000250 70 0c a2 38 5b 3c 88 39 b3 f5 2f 39 12 84 a4 38
       7.7270786e-05 0.0002598491 0.0001678083 7.8447294e-05
000260 f6 39 fa 32 ad bd 94 32 2a d7 75 32 23 b0 3b 32
       2.9130188e-08 1.7315722e-08 1.43098e-08 1.0924881e-08
000270 0e bc 52 38 b8 50 7a 36 bc 0a 1e 38 d5 b6 08 38
       5.024304e-05 3.7299887e-06 3.7680133e-05 3.2595202e-05
000280 00 74 89 36 c8 13 e4 37 51 dc 64 37 c2 4a b1 36
       4.0964223e-06 2.718893e-05 1.3641155e-05 5.283714e-06
000290 c3 2e a8 35 95 60 32 36 8f 10 04 36 39 33 d9 35
       1.2530585e-06 2.6580285e-06 1.9679171e-06 1.6182668e-06
0002a0 fd ff 97 37 1f 4e 19 35 1f 85 10 37 11 44 c1 36
       1.8119807e-05 5.711062e-07 8.6140635e-06 5.759772e-06
0002b0 f7 14 9c 35 74 b4 d2 35 06 ae 83 35 93 3f a9 35
       1.1629007e-06 1.5698738e-06 9.810908e-07 1.2609984e-06
0002c0 08 81 39 38 f8 9d 07 39 78 e0 be 38 19 52 3a 38
       4.4227607e-05 0.00012933451 9.1017166e-05 4.4422315e-05
0002d0 96 53 d1 36 4c cc b4 37 09 ab 61 37 1c 3c d9 36
       6.238416e-06 2.1552805e-05 1.3450867e-05 6.4741016e-06
0002e0 6a 00 a0 35 df 61 9c 35 6c 91 01 36 8e 64 ee 35
       1.192105e-06 1.165139e-06 1.9307145e-06 1.7761647e-06
0002f0 0b 21 6c 37 7c 09 d3 37 78 e9 01 38 45 15 70 37
       1.407439e-05 2.5157577e-05 3.097343e-05 1.4310067e-05
000300 f3 2d 07 39 3c e1 d0 39 e9 f1 91 39 dd 42 0b 39
       0.0001289172 0.00039840664 0.00027836792 0.00013280982
000310 52 bf 05 39 80 a0 cb 39 03 d3 92 39 b7 3a 09 39
       0.00012755141 0.0003883876 0.00028004506 0.00013087211
000320 91 44 d4 38 f0 10 9b 39 56 e2 59 39 b2 c1 d5 38
       0.00010121719 0.00029576523 0.0002077905 0.0001019271
000330 be 8b ee 35 44 6f bf 35 4c 30 20 36 0e b1 26 36
       1.7773052e-06 1.4262991e-06 2.386997e-06 2.4838987e-06
000340 aa ac 71 37 9e d3 43 38 9c 6a 0b 38 ab cd 80 37
       1.4404921e-05 4.6688707e-05 3.323947e-05 1.535456e-05
000350 72 8f 01 34 54 0f c7 32 bb b1 cd 33 7b ff 8f 33
       1.2066246e-07 2.317362e-08 9.5783854e-08 6.705428e-08
000360 9e 81 7d 37 da fa d9 37 ba 21 05 38 12 48 82 37
       1.5110154e-05 2.5985228e-05 3.174108e-05 1.5530768e-05
000370 87 5e a8 38 04 25 82 39 15 f1 2d 39 0c d5 a8 38
       8.028471e-05 0.0002482311 0.00016588376 8.050547e-05
000380 8e 30 28 38 a4 1c 02 39 cf 4f ad 38 b6 8b 25 38
       4.009954e-05 0.00012408436 8.264148e-05 3.946918e-05
000390 f6 e2 34 36 64 80 e7 35 cf d2 6e 36 dc 95 59 36
       2.6954199e-06 1.7248208e-06 3.558747e-06 3.242275e-06
0003a0 22 2a 7a 35 d0 0e 4f 35 c9 9e 90 35 b7 61 8b 35
       9.319357e-07 7.7135064e-07 1.0775049e-06 1.0384746e-06
0003b0 75 a5 d3 37 33 a8 ac 38 7a 72 64 38 af 4a c9 37
       2.5230207e-05 8.232929e-05 5.446605e-05 2.3995844e-05
0003c0 de 71 95 38 93 fc 6f 39 68 20 1e 39 97 d8 8c 38
       7.126083e-05 0.00022886907 0.00015080126 6.716063e-05
0003d0 3b 0d f7 37 05 e9 48 38 06 f3 77 38 8f 31 eb 37
       2.9450855e-05 4.7900732e-05 5.9115722e-05 2.803726e-05
0003e0 a5 9d d5 38 72 5b b4 39 bd 75 6e 39 8c a9 dc 38
       0.00010185995 0.00034400407 0.0002274131 0.00010521998
0003f0 e4 eb a6 38 c3 f4 81 39 0f bc 29 39 20 f1 a2 38
       7.959435e-05 0.0002478716 0.00016187153 7.769675e-05

exp_avg f4 [64]
000000 21 61 1e 3a 00 00 00 00 9c 63 ad ba 46 0a b4 b7
       0.0006041695 0.0 -0.0013228538 -2.1462456e-05
000010 14 c9 f8 b9 ee 4c c8 39 6a 50 42 ba 82 41 dd ba
       -0.0004745206 0.0003820429 -0.00074124953 -0.0016880485
000020 ab 8f 6b 38 8b 18 af 37 e6 b8 25 b9 65 f4 47 39
       5.6162167e-05 2.0873054e-05 -0.00015804506 0.00019069163
000030 fb 7d b7 b7 35 8b 25 b9 06 9e aa b7 9e b2 87 3b
       -2.1873964e-05 -0.00015787485 -2.0339165e-05 0.004141166
000040 d9 96 93 b7 d6 63 c3 ba e8 7d 58 b8 eb 50 3b 3b
       -1.759401e-05 -0.0014907073 -5.1615672e-05 0.0028582166
000050 2c b5 9f 3a c9 d3 5c b8 d6 49 5a 3a 5b 30 4d 3b
       0.0012184731 -5.2649328e-05 0.00083270425 0.003130934
000060 f5 5b 0e 38 96 ac 38 3a 6e 92 20 39 2c c7 f3 b6
       3.394108e-05 0.000704476 0.00015313338 -7.265151e-06
000070 46 1d 6b b8 d8 93 d0 ba c6 96 30 3b b3 a0 17 3a
       -5.605563e-05 -0.0015913201 0.0026945337 0.0005784139
000080 2e 41 9a ba 00 00 00 00 99 df d2 bb 80 36 04 bb
       -0.0011768693 0.0 -0.0064353463 -0.0020174086
000090 c1 8e 16 bb ac b9 4b bb 46 52 24 1c 9a 5f 55 bb
       -0.0022973272 -0.003108601 5.4369384e-22 -0.0032558204
0000a0 69 b2 00 ba cb 16 c9 39 25 00 4e 3b ee 43 17 39
       -0.00049093977 0.0003835469 0.0031433192 0.00014425788
0000b0 1f 77 04 3b 2a 7f 88 3a 83 23 f2 37 78 3a 2b 3b
       0.0020212603 0.0010413874 2.8865185e-05 0.002612738
0000c0 10 b4 6b 3b e7 9a 69 3b d8 de 35 3b bb b4 0a 39
       0.003596548 0.0035645308 0.0027751233 0.00013228033
0000d0 df 71 c3 3a 87 f5 03 b5 96 a7 be 3a f4 cc 33 bb
       0.0014911256 -4.915859e-07 0.0014545794 -0.0027435394
0000e0 8c 10 f1 ba 01 e3 a2 37 93 83 16 37 b3 e4 e0 ba
       -0.0018391772 1.9417612e-05 8.971331e-06 -0.0017158001
0000f0 e7 aa 03 bb 33 82 37 ba ed 32 69 bb bc c7 2c bb
       -0.002009088 -0.0007000297 -0.0035583333 -0.0026364168

exp_avg_sq f4 [64]
000000 63 5d cb 37 00 00 00 00 75 b7 02 38 7e df 0a 35
       2.4242972e-05 0.0 3.1165273e-05 5.173423e-07
000010 a6 03 8c 36 1e 10 93 36 7b 01 0c 38 8e 92 1e 39
       4.17275e-06 4.3828177e-06 3.337998e-05 0.0001512265
000020 43 3f e4 34 fd 1d 56 34 df d7 e7 37 c7 4b cc 35
       4.2514338e-07 1.9941213e-07 2.7637869e-05 1.5221239e-06
000030 34 6b aa 35 41 c3 14 38 cb 56 28 34 67 06 2f 3a
       1.2697187e-06 3.5467794e-05 1.5677794e-07 0.0006676674
000040 9a c5 8b 33 a9 47 45 38 4b 06 0c 36 bc 26 ef 39
       6.5086354e-08 4.70352e-05 2.0865289e-06 0.00045614492
000050 2c db 46 38 bd 72 e8 35 54 96 7d 37 f8 2b fb 39
       4.7411e-05 1.731874e-06 1.5114976e-05 0.0004790721
000060 f9 14 c9 35 02 d7 b2 37 7c 11 10 38 ba 4a b7 34
       1.4981771e-06 2.1319374e-05 3.434856e-05 3.4140777e-07
000070 0e 64 39 35 25 79 5f 37 d0 42 8a 39 88 22 25 37
       6.906347e-07 1.3320042e-05 0.0002637119 9.842806e-06
000080 38 11 b0 38 00 00 00 00 b2 3a 76 39 2c 12 04 39
       8.395541e-05 0.0 0.00023482254 0.0001259527
000090 d3 ad 77 38 21 e5 b7 39 13 89 ea 31 ac 5c ad 38
       5.9051275e-05 0.00035075194 6.82588e-09 8.266544e-05
0000a0 9a 87 ed 37 63 4a 5a 36 ab b1 85 37 ea 88 bc 35
       2.8315746e-05 3.252783e-06 1.5937569e-05 1.4046939e-06
0000b0 0b 96 43 39 75 81 ee 37 0b 75 82 35 e7 f2 80 38
       0.00018652545 2.8432094e-05 9.719819e-07 6.14876e-05
0000c0 02 70 16 3a b5 08 16 3a 1a 1c de 39 39 30 0d 36
       0.00057387364 0.00057233433 0.00042364077 2.1038707e-06
0000d0 36 b2 8d 38 67 59 a0 33 28 3a 82 38 dd 1b b4 39
       6.756598e-05 7.466843e-08 6.2097155e-05 0.00034353035
0000e0 4b d0 37 39 2e 65 05 36 e0 f6 11 35 0c 05 ea 38
       0.00017529835 1.9877439e-06 5.437596e-07 0.000111589296
0000f0 a8 da a2 39 ce 2c f6 38 ad bc f8 39 f2 a6 b2 39
       0.0003106196 0.000117385396 0.0004744282 0.0003407519

exp_avg f4 [32, 64]
000000 24 16 06 1d 00 00 00 00 82 b0 6c 1c 23 96 fc 1b
       1.7746199e-21 0.0 7.831398e-22 4.1786926e-22
000010 52 95 4e 1c 4b 17 73 9b fa 54 e6 18 79 fc 40 9c
       6.8352674e-22 -2.0108015e-22 5.953941e-24 -6.3853784e-22
000020 78 31 a8 1c df 83 41 1d 20 50 e8 19 8d 8c 6d 9b
       1.1130095e-21 2.5611513e-21 2.40206e-23 -1.9649595e-22
000030 3f e9 95 1c 5f b5 d4 9b 85 71 fa 1c 6a c2 ac 1a
       9.920286e-22 -3.5189666e-22 1.6572956e-21 7.1451626e-23
000040 ee 08 7d 1c df 23 f9 1c 47 33 48 1c dc a1 4d 1b
       8.372222e-22 1.648671e-21 6.6240723e-22 1.7009502e-22
000050 21 51 6d 1b 3d 93 32 1d 74 de b2 1c 84 78 01 1c
       1.9630395e-22 2.3634224e-21 1.1836555e-21 4.283828e-22
000060 7a c5 3b 1d 14 40 c5 1b 87 1d 50 1c f4 d8 b3 1c
       2.4851337e-21 3.2632326e-22 6.885959e-22 1.1901307e-21
000070 92 e8 53 1d d9 ac 65 1d 00 7b 3f 1c 5e 38 a0 1c
       2.8045854e-21 3.0397258e-21 6.3355573e-22 1.0602482e-21
000080 5c 2a c5 9b 00 00 00 00 d2 88 60 1d 63 6e f7 1c
       -3.261829e-22 0.0 2.9716888e-21 1.6373623e-21
000090 68 46 8e 1c 94 58 79 1c 72 43 89 1a 1d 1a 03 1d
       9.414971e-22 8.2501674e-22 5.6770836e-23 1.7351206e-21
0000a0 83 08 c9 19 e9 6b af 1c 1c 0c 5b 1b 61 71 cc 1b
       2.078635e-23 1.1608423e-21 1.8119168e-22 3.3822238e-22
0000b0 b2 57 87 1c 1f f2 e3 1a 7f 7f b1 1d fd 2b 50 1b
       8.956219e-22 9.427617e-23 4.6983338e-21 1.721957e-22
0000c0 1a d6 a9 1b e8 43 e7 1a e9 a2 9b 1c bc f5 36 9b
       2.8097065e-22 9.564907e-23 1.0299151e-21 -1.5134088e-22
0000d0 00 e1 32 1b e1 c3 5d 9a 4d 9c 76 1c 11 34 52 9b
       1.4796516e-22 -4.585996e-23 8.1596586e-22 -1.7387616e-22
0000e0 58 2f b5 1b 61 c8 97 1c 6f b1 0a 1c 8c ab 52 9b
       2.9974533e-22 1.0044139e-21 4.5889697e-22 -1.7426223e-22
0000f0 df 02 a5 1b a5 7e b4 1c 7e 6d bd 1c 2e d4 5c 9b
       2.7298816e-22 1.1944138e-21 1.2535274e-21 -1.8266532e-22
000100 a1 b8 c6 3a 00 00 00 00 d7 c2 39 3a 77 33 e6 b5
       0.0015161225 0.0 0.00070862233 -1.7151314e-06
000110 94 7f 95 39 56 db 88 3a 3a 7a df 38 38 7d 31 3a
       0.00028514548 0.0010441344 0.00010656235 0.0006770673
000120 f9 82 a6 b7 0f a4 b4 22 56 cb 85 39 80 17 f7 39
       -1.9849731e-05 4.89628e-18 0.00025519234 0.0004712902
000130 23 65 f4 99 b7 9c 9d 39 42 4d df 36 01 2e 31 39
       -2.5269857e-23 0.00030062135 6.654912e-06 0.00016897173
000140 57 80 87 9a 90 e4 9d 39 64 d7 2f 3a ba 22 5d 39
       -5.6042036e-23 0.00030115666 0.0006707816 0.00021089139
000150 2a 7a 23 3a 8c d0 a6 37 0a cb e3 39 df 23 15 3a
       0.00062361604 1.9885854e-05 0.0004344809 0.0005689244
000160 8a 56 0c 24 57 83 94 3a 18 64 3f 39 a6 d8 2b b8
       3.0430962e-17 0.0011330646 0.00018252467 -4.0971347e-05
000170 41 c7 2c 37 0f 41 4e 39 5c 50 41 3a 04 66 81 3a
       1.0298391e-05 0.00019669927 0.000737434 0.0009872322
000180 9a fe 08 3a 00 00 00 00 3c 59 c5 39 bc 1a 41 3a
       0.0005225927 0.0 0.00037641253 0.00073663495
000190 d4 09 18 b9 47 04 6f 39 9f e4 1b 9b 1e 0a 29 3a
       -0.00014499511 0.0002279441 -1.2895171e-22 0.0006448346
0001a0 57 20 e4 39 bf 5b 34 3a e3 46 2e b8 23 5f 5d 3a
       0.00043511644 0.00068801263 -4.155085e-05 0.00084446574
0001b0 32 a3 12 3a 50 e9 9d 3a 5c 2c a8 36 2f 55 cc b8
       0.0005593776 0.0012047682 5.0119543e-06 -9.743345e-05
0001c0 82 8b dc 39 4f e0 0e 39 6c e7 f1 39 44 d2 85 3a
       0.0004206561 0.00013625737 0.00046139525 0.0010209759
0001d0 cd 2d ad 37 82 07 ef 2e f8 0d b1 b9 18 5f ad 39
       2.0644535e-05 1.0869795e-10 -0.00033770478 0.00033067982
0001e0 ed cf 99 39 00 00 00 00 ef 8f da b6 78 f8 40 39
       0.0002933735 0.0 -6.5136624e-06 0.00018403109
0001f0 9f 9c 52 38 2e fa 14 b9 97 17 9a 39 f2 04 84 39
       5.0213766e-05 -0.00014207579 0.00029390745 0.00025180686
000200 f0 ea c4 ba 00 00 00 00 88 16 3c ba f0 6f 16 36
       -0.001502363 0.0 -0.0007174988 2.2416898e-06
000210 6c a8 97 b9 09 86 88 ba 27 5d c2 b8 c3 11 30 ba
       -0.00028926448 -0.0010415922 -9.267992e-05 -0.0006716514
000220 34 62 90 37 0e 96 51 35 46 19 86 b9 d2 a1 f1 b9
       1.7211867e-05 7.8076926e-07 -0.00025577302 -0.00046087668
000230 15 cb 4e 35 cc 99 9e b9 31 9a 09 b7 98 3f 2a b9
       7.7036503e-07 -0.00030250696 -8.201737e-06 -0.00016236154
000240 d1 e9 55 35 8a 07 a3 b9 4b 71 33 ba 8b dd 5b b9
       7.968893e-07 -0.000310954 -0.000684519 -0.00020967999
000250 d1 13 1f ba 2e b4 e2 b7 0d ff de b9 72 53 15 ba
       -0.00060683215 -2.7025202e-05 -0.00042533167 -0.0005696333
000260 52 aa 67 35 a8 46 95 ba c8 34 40 b9 35 22 07 38
       8.6302055e-07 -0.0011388855 -0.0001833021 3.2218366e-05
000270 99 18 68 b7 ca b0 55 b9 bb 57 41 ba e5 e8 80 ba
       -1.3834005e-05 -0.00020379122 -0.00073754386 -0.0009835033
000280 e2 f2 09 ba 00 00 00 00 2a 4c c9 b9 60 6a 44 ba
       -0.00052623276 0.0 -0.00038394454 -0.0007492658
000290 c6 cf 15 39 fc ae 75 b9 00 00 00 00 24 fd 2a ba
       0.00014287149 -0.00023430208 0.0 -0.0006522706
0002a0 f5 f9 e7 b9 28 5e 35 ba 0e 2e 2d 38 37 54 5c ba
       -0.00044245986 -0.00069186324 4.1289306e-05 -0.0008404883
0002b0 20 d3 0d ba ae ee 9d ba 57 63 d0 b6 79 f6 c9 38
       -0.0005410183 -0.0012049282 -6.2104477e-06 9.630336e-05
0002c0 1c 57 d8 b9 5c f1 0a b9 56 82 ee b9 9d 4a 85 ba
       -0.00041263632 -0.00013250619 -0.00045492005 -0.0010169331
0002d0 53 57 5b b7 01 bc 20 35 5a f4 b1 39 c3 aa b0 b9
       -1.3073749e-05 5.9878226e-07 0.00033942127 -0.00033696563
0002e0 30 01 9d b9 5a b5 ce 35 42 23 94 36 30 1c 30 b9
       -0.00029946258 1.5400976e-06 4.4148483e-06 -0.00016795169
0002f0 fd ac 33 b8 91 d2 16 39 75 b1 9b b9 1b e4 84 b9
       -4.2838034e-05 0.00014383557 -0.0002969612 -0.00025346954
000300 e6 8c 8a 3a 00 00 00 00 c9 48 fd 39 ce 6e a2 b5
       0.0010570555 0.0 0.0004831015 -1.2102189e-06
000310 11 db 4b 39 53 f8 3c 3a 5b aa a4 38 f0 74 f5 39
       0.00019441197 0.0007208634 7.8518606e-05 0.00046817167
000320 25 9b b2 b7 c4 d4 f1 b5 32 e9 36 39 a2 29 ad 39
       -2.1291498e-05 -1.8017822e-06 0.00017443745 0.0003302815
000330 00 00 00 00 d3 df 55 39 5b 3c 66 b5 e8 97 fb 38
       0.0 0.00020396644 -8.5769506e-07 0.000119969074
000340 00 00 00 00 2c f1 4e 39 f1 07 ee 39 5b dc 1b 39
       0.0 0.00019735534 0.00045400814 0.0001486404
000350 a2 e4 e7 39 87 31 f4 36 cc e1 9f 39 f0 0d cf 39
       0.00044230098 7.2775324e-06 0.00030495075 0.000394925
000360 6f 35 b6 b4 92 4e 4c 3a 3e 6b 06 39 0a 34 24 b8
       -3.393902e-07 0.00077936903 0.00012819187 -3.9149112e-05
000370 10 31 a0 35 15 5f 02 39 42 b1 05 3a 63 82 33 3a
       1.1935208e-06 0.00012433187 0.0005099961 0.0006847737
000380 74 fd b8 39 00 00 00 00 76 df 88 39 83 fb 02 3a
       0.00035284052 0.0 0.00026106433 0.00049965846
000390 34 29 e7 b8 ef a4 1c 39 00 00 00 00 8a 1f ec 39
       -0.00011022613 0.00014938762 0.0 0.00045036926
0003a0 9d 2e 9d 39 97 38 f7 39 62 25 f4 b7 8e 57 19 3a
       0.00029980103 0.00047153674 -2.9104474e-05 0.00058495335
0003b0 2e e8 d1 39 bd bd 59 3a 57 46 9a b5 70 1c a5 b8
       0.00040036574 0.0008306166 -1.1494366e-06 -7.87311e-05
0003c0 6a da 9b 39 c4 5d cd 38 0b 39 aa 39 33 4b 39 3a
       0.00029726635 9.792627e-05 0.00032467427 0.00070683955
0003d0 8b 66 8b 37 48 19 46 32 51 9d 83 b9 95 8c 67 39
       1.6617842e-05 1.1530865e-08 -0.00025103477 0.00022082248
0003e0 83 14 4d 39 a3 94 46 33 df e0 5e b7 6b db 09 39
       0.00019557965 4.623565e-08 -1.3284588e-05 0.00013147078
0003f0 26 ab 10 38 0c 9f e4 b8 6a 0a 4f 39 2a 55 30 39
       3.449167e-05 -0.00010901512 0.00019744938 0.00016816394
